…
        x = self.pool(F.relu(self.bn1(self.conv1(x))))
        x = self.pool(F.relu(self.bn2(self.conv2(x))))
        x = self.pool(F.relu(self.bn3(self.conv3(x))))
        x = self.pool(F.relu(self.bn4(self.conv4(x))))
        x = x.view(-1, 512 * 28 * 28)  # Adjusted for 224x224 input images
        x = self.dropout(F.relu(self.bn_fc1(self.fc1(x))))
        x = self.dropout(F.relu(self.bn_fc2(self.fc2(x))))
        x = self.fc3(x)
        return x

# Example usage
num_classes = 10  # Adjust based on your dataset
model = ComplexCustomCNN(num_classes=num_classes)
print(model)
```
```
ComplexCustomCNN(
  (conv1): Conv2d(3, 64, kernel_size=(3, 3), stride=(1, 1), padding=(1, 1))
  (bn1): BatchNorm2d(64, eps=1e-05, momentum=0.1, affine=True, track_running_stats=True)
  (conv2): Conv2d(64, 128, kernel_size=(3, 3), stride=(1, 1), padding=(1, 1))
  (bn2): BatchNorm2d(128, eps=1e-05, momentum=0.1, affine=True, track_running_stats=True)
  (conv3): Conv2d(128, 256, kernel_size=(3, 3), stride=(1, 1), padding=(1, 1))
  (bn3): BatchNorm2d(256, eps=1e-05, momentum=0.1, affine=True, track_running_stats=True)
  (conv4): Conv2d(256, 512, kernel_size=(3, 3), stride=(1, 1), padding=(1, 1))
  (bn4): BatchNorm2d(512, eps=1e-05, momentum=0.1, affine=True, track_running_stats=True)
  (pool): MaxPool2d(kernel_size=2, stride=2, padding=0, dilation=1, ceil_mode=False)
  (fc1): Linear(in_features=401408, out_features=1024, bias=True)
  (bn_fc1): BatchNorm1d(1024, eps=1e-05, momentum=0.1, affine=True, track_running_stats=True)
  (fc2): Linear(in_features=1024, out_features=512, bias=True)
  (bn_fc2): BatchNorm1d(512, eps=1e-05, momentum=0.1, affine=True, track_running_stats=True)
  (fc3): Linear(in_features=512, out_features=10, bias=True)
  (dropout): Dropout(p=0.5, inplace=False)
)
```
```python
from sklearn.model_selection import KFold
from torch.utils.data import DataLoader, Subset
from torchvision import datasets, transforms
from torch import nn, optim
import torch
from sklearn.metrics import confusion_matrix
import numpy as np



# Define the transformation for the dataset
transform = transforms.Compose([
…
