…
relu(self.bn1(self.conv1(x))))\n        x = self.pool(F.relu(self.bn2(self.conv2(x))))\n        x = self.pool(F.relu(self.bn3(self.conv3(x))))\n        x = self.pool(F.relu(self.bn4(self.conv4(x))))\n        x = x.view(-1, 512 * 28 * 28)  # Adjusted for 224x224 input images\n        x = self.dropout(F.relu(self.bn_fc1(self.fc1(x))))\n        x = self.dropout(F.relu(self.bn_fc2(self.fc2(x))))\n        x = self.fc3(x)\n        return x\n\n# Example usage\nnum_classes = 10  # Adjust based on your dataset\nmodel = ComplexCustomCNN(num_classes=num_classes)\nprint(model)\nComplexCustomCNN(\n  (conv1): Conv2d(3, 64, kernel_size=(3, 3), stride=(1, 1), padding=(1, 1))\n  (bn1): BatchNorm2d(64, eps=1e-05, momentum=0.1, affine=True, track_running_stats=True)\n  (conv2): Conv2d(64, 128, kernel_size=(3, 3), stride=(1, 1), padding=(1, 1))\n  (bn2): BatchNorm2d(128, eps=1e-05, momentum=0.1, affine=True, track_running_stats=True)\n  (conv3): Conv2d(128, 256, kernel_size=(3, 3), stride=(1, 1), padding=(1, 1))\n  (bn3): BatchNorm2d(256, eps=1e-05, momentum=0.1, affine=True, track_running_stats=True)\n  (conv4): Conv2d(256, 512, kernel_size=(3, 3), stride=(1, 1), padding=(1, 1))\n  (bn4): BatchNorm2d(512, eps=1e-05, momentum=0.1, affine=True, track_running_stats=True)\n  (pool): MaxPool2d(kernel_size=2, stride=2, padding=0, dilation=1, ceil_mode=False)\n  (fc1): Linear(in_features=401408, out_features=1024, bias=True)\n  (bn_fc1): BatchNorm1d(1024, eps=1e-05, momentum=0.1, affine=True, track_running_stats=True)\n  (fc2): Linear(in_features=1024, out_features=512, bias=True)\n  (bn_fc2): BatchNorm1d(512, eps=1e-05, momentum=0.1, affine=True, track_running_stats=True)\n  (fc3): Linear(in_features=512, out_features=10, bias=True)\n  (dropout): Dropout(p=0.5, inplace=False)\n)\nfrom sklearn.model_selection import KFold\nfrom torch.utils.data import DataLoader, Subset\nfrom torchvision import datasets, transforms\nfrom torch import nn, optim\nimport torch\nfrom sklearn.metrics import confusion_matrix\nimport numpy as np\n\n\n\n# Define the transformation for the dataset\ntransform
…
